Landmark_version/model/keypoint_classifier/keypoint_classifier.tflite (tflite, 6736 bytes, 6 tensors)

sequential_2/dense_8/BiasAdd/ReadVariableOp f4 [9]
0	0xbf06c5d9	-0.5264564
1	0xbe60b8f2	-0.21945551
2	0x3fab8102	1.3398745
3	0x3eaa67f2	0.3328243
4	0x3e8bfcf1	0.27341416
5	0xbfab6c0b	-1.3392347
6	0x3f90ebb0	1.1321926
7	0xbf8a942c	-1.0826468
8	0x3eaa28b1	0.3323417

sequential_2/dense_7/BiasAdd/ReadVariableOp f4 [10]
0	0xbf9e7148	-1.2378321
1	0xbf84e6f8	-1.0382986
2	0x3e7540cf	0.23950504
3	0x3f6edf44	0.93309426
4	0xbe9d7bcf	-0.3075852
5	0x3e8c15fd	0.27360526
6	0x3f46f193	0.77712363
7	0x3d4b4992	0.04963071
8	0x3f4da88c	0.8033531
9	0x3faffc9d	1.3748966

sequential_2/dense_6/BiasAdd/ReadVariableOp f4 [20]
0	0xbe7f1bd3	-0.24912958
1	0xbeb6a005	-0.3566896
2	0x3dff13eb	0.12454971
3	0xbe59e274	-0.21277791
4	0x3e664a31	0.2248924
5	0xbde503d5	-0.111823715
6	0xbeedc8c8	-0.46442246
7	0xbf708935	-0.9395936
8	0x3eb59464	0.35464776
9	0xbec166b5	-0.37773672
10	0xbf5b555d	-0.8567713
11	0xbf2118f3	-0.62928694
12	0xbe6c191e	-0.23056456
13	0xbf286597	-0.65780014
14	0xbe9bb772	-0.30413395
15	0x3f28e25d	0.659704
16	0xbf1666b5	-0.5875047
17	0xbe2df373	-0.169874
18	0xbf47d5c1	-0.7806054
19	0xbeddf089	-0.43347576

sequential_2/dense_6/MatMul f4 [20, 42]
0	0xbdefd088	-0.11709696
1	0x3d2ac8d0	0.041695416
2	0xbe4eae7a	-0.20183745
3	0x3dbbe234	0.09174004
4	0x3e5ee48a	0.21766868
5	0x3dfe5757	0.124190025
6	0x3eac5f0f	0.33666274
7	0x3def3aa5	0.116811074
8	0x3e683d5d	0.22679658
9	0xbeb9b55a	-0.36271173
10	0x3ea652c6	0.32485026
11	0x3e24a3e5	0.16078146
12	0xbdb928d2	-0.09040989
13	0x3d92dedf	0.071714155
14	0xbe483aad	-0.19553633
15	0x3e287abf	0.16453074
16	0xbc966da9	-0.018362837
17	0x3e95e52c	0.29276407
18	0x3e896245	0.26832786
19	0x3f1970e8	0.59937906
20	0x3c61b42d	0.013775867
21	0x3e59558f	0.21224044
22	0x3c48417a	0.012222642
23	0x3ecfd48f	0.40591857
24	0xbe96e00b	-0.29467806
25	0xbdbd5556	-0.09244792
26	0xbd61c90d	-0.055123378
27	0x3e83cfa1	0.25744346
28	0x3e013696	0.12618479
29	0xbf0ac29f	-0.5420322
30	0x3d2c93e5	0.04213323
31	0xbf26bef4	-0.6513512
32	0xbeef663a	-0.4675768
33	0xbf68450d	-0.90730363
34	0x3dd18557	0.10230511
35	0x3ebf774c	0.37395704
36	0xbe45c160	-0.19312048
37	0xbdcf388c	-0.10118207
38	0xbdc458bb	-0.095872365
39	0xbfc2f2c7	-1.523034
40	0xbed64277	-0.41847584
41	0xbfebe978	-1.8430624
42	0x3e4fe9bc	0.20304006
43	0xbe3a3843	-0.18185525
44	0x3ed685b7	0.4189889
45	0x3e17def5	0.14831145
46	0xbd27b0ef	-0.04094022
47	0xbdbb7dea	-0.091548756
48	0xbda20f09	-0.07913024
49	0x3dcf693f	0.10127496
50	0xbed81b1d	-0.42208186
51	0x3dfe1f1b	0.12408277
52	0xbe6c239f	-0.23060463
53	0x3a4b4331	0.0007753848
54	0x3edf5d30	0.43625784
55	0x3dade772	0.0849141
56	0x3e54008f	0.20703338
57	0x3d63f651	0.055654828
58	0x3ef19537	0.47184154
59	0xbf9e818a	-1.2383282
60	0x3e87fe3b	0.2656115
61	0x3e1d2775	0.15347083
62	0xbe95528a	-0.29164535
63	0x3ed9815c	0.42481506
64	0xbdf3ee98	-0.119107425
65	0x3ea0da38	0.31416488
66	0xbd093fb8	-0.033508033
67	0x3e17b763	0.1481605
68	0x3dd66f40	0.10470438
69	0x3d9def33	0.07711639
70	0xbe6169e6	-0.22013053
71	0x3d1672ad	0.036730457
72	0xbc9a7f5e	-0.018859562
73	0xbdba74b2	-0.09104289
74	0x3e811135	0.2520844
75	0xbeed2a09	-0.46321133
76	0xbe25a338	-0.16175544
77	0x3dae2ee2	0.08505036
78	0x3d3b3b37	0.04571077
79	0x3e68b8e0	0.22726774
80	0xbdd6178f	-0.10453712
81	0xbe1c3192	-0.15253285
82	0x3f50bda8	0.8153939
83	0xbe80b91a	-0.2514122
84	0x3deba8a8	0.11506778
85	0xbe4a7258	-0.19770181
86	0x3ed21108	0.4102862
87	0x3f4cc4ae	0.7998761
88	0xbd9c7862	-0.07640149
89	0x3e7ed881	0.24887277
90	0xbe183934	-0.14865571
91	0xbed578df	-0.4169378
92	0xbf4a89ef	-0.7911672
93	0x3d338559	0.043828342
94	0xbebbeaef	-0.36702678
95	0xbe1f5ae2	-0.15562013
96	0x3e257a68	0.16159976
97	0xbc8b7fe2	-0.017028753
98	0x3e52f560	0.20601416
99	0xbeb5dafc	-0.35518634
100	0x3e6f0681	0.23342325
101	0xbe15fde4	-0.14647633
102	0xbf0c71a0	-0.5486088
103	0xbd766d56	-0.060162865
104	0x3e05c362	0.13062814
105	0xbf314ab7	-0.6925463
106	0x3f1651f9	0.5871883
107	0xbf085ebc	-0.53269553
108	0x3f735df6	0.9506525
109	0xbef10111	-0.47071126
110	0x3d84d778	0.0648641
111	0x3e5f922f	0.21833108
112	0x3dd60946	0.104509875
113	0xbd8949b7	-0.06703513
114	0x3df3cce7	0.119043164
115	0x3ce787f9	0.028263079
116	0x3f7f44b9	0.9971424
117	0x3f29d0bc	0.6633413
118	0xbe74cb6d	-0.23905726
119	0x3e43ddb0	0.19127536
120	0x3eb4f549	0.35343388
121	0xbe88d3f2	-0.267242
122	0xbe661d37	-0.22472082
123	0x3f11d352	0.56963074
124	0x3ef1556c	0.47135484
125	0x3ea48562	0.32133013
126	0xbe9d237b	-0.30691132
127	0x3e9ee7ca	0.31036216
128	0x3f07e98a	0.5309073
129	0xbe9f25b9	-0.31083468
130	0x3cb2e449	0.02183737
131	0x3ea653fa	0.32485944
132	0x3f196165	0.5991424
133	0x3f275255	0.65360004
134	0x3e98696f	0.2976794
135	0x3d72b4a7	0.059254315
136	0x3e8bcdf2	0.2730556
137	0xbf02614f	-0.5092973
138	0xbe5e20a0	-0.21692133
139	0xbed2bdbf	-0.4116039
140	0xbd89a95d	-0.067217566
141	0x3cd4357b	0.025904408
142	0xbe4470d0	-0.1918366
143	0x3e61adab	0.22038905
144	0x3e4f3e09	0.20238508
145	0xbeb609c3	-0.35554323
146	0xbd647ab5	-0.055781085
147	0xbe40420e	-0.18775198
148	0x3e9fdea2	0.31224543
149	0x3e20b2ab	0.15693156
150	0xbe9e87c0	-0.30962944
151	0x3f74e3ca	0.9566008
152	0xbe849323	-0.25893506
153	0xbf1c2763	-0.609976
154	0xbe21adbf	-0.15788935
155	0xbec44913	-0.38337
156	0xbe076ad5	-0.13224347
157	0x3f0eda8b	0.5580222
158	0xbf44e0d4	-0.7690556
159	0x3f0d5935	0.55214244
160	0xbe90a78f	-0.28252837
161	0xbf2c0c51	-0.67206293
162	0xbdaa2e5b	-0.08309623
163	0x3ee02bf1	0.43783525
164	0xbe5a9756	-0.21346793
165	0x3f40ffd1	0.75390345
166	0xbe37b4a4	-0.17940003
167	0x3f9deb2d	1.2337395
168	0x3e372a00	0.17887115
169	0xbda646c4	-0.08118966
170	0x3f3026ac	0.6880901
171	0x40265ea8	2.5995274
172	0x3e61407f	0.2199726
173	0x3fbfd081	1.4985505
174	0x3dd70c65	0.10500411
175	0x3fabf7ad	1.343496
176	0x3d8162f2	0.063177004
177	0x3f5fd7d5	0.8743871
178	0xbdad8cc6	-0.08474116
179	0xbf0f46ce	-0.55967414
180	0x3e130455	0.14357121
181	0x3e145b7c	0.14488024
182	0x3d53d788	0.05171922
183	0x3e7e0623	0.24807028
184	0x3d195b20	0.03744042
185	0x3d32bf36	0.043639384
186	0xbe431d39	-0.19054116
187	0xbefbb481	-0.4916115
188	0xbe9b7d7c	-0.30369174
189	0xbdb2c3a5	-0.087287225
190	0xbc6a4c07	-0.014300353
191	0x3e39226f	0.18079542
192	0x3df397c8	0.11894184
193	0x3e32b3a7	0.17451344
194	0x3d79193a	0.060815074
195	0xbf2a703b	-0.665775
196	0x3d98b04a	0.074554995
197	0xbc87a74c	-0.016559266
198	0x3e0853c4	0.13313204
199	0xbe92b908	-0.28656793
200	0x3dcf01c6	0.1010776
201	0xbe810ab8	-0.2520349
202	0xbd007076	-0.03135725
203	0xbf4adfd0	-0.7924776
204	0x3e6f6dff	0.23381804
205	0xbeaffa95	-0.34370866
206	0xbdef0eea	-0.116727665
207	0xbe6c7c45	-0.2309428
208	0xbe6dfae2	-0.23240235
209	0x3cf89b12	0.03034738
210	0xbd8b5542	-0.06803371
211	0xbd99d2f4	-0.07510939
212	0x3df0b1ac	0.11752638
213	0xbf809f1c	-1.0048556
214	0x3e9718b4	0.29511034
215	0xbf1135f4	-0.5672295
216	0x3ea1255e	0.3147382
217	0xbf197a71	-0.59952456
218	0x3f840a06	1.0315559
219	0xbed16db5	-0.40904012
220	0x3e925d77	0.28586933
221	0xbeba5837	-0.36395428
222	0x3ea9c019	0.3315437
223	0xbd83f20f	-0.064426534
224	0x3ee94ee9	0.45568016
225	0xbedb3a49	-0.42817906
226	0x3ee36bfc	0.44418323
227	0x3de0a590	0.109690785
228	0x3efa2478	0.48855948
229	0x3d4f117c	0.050553784
230	0xbeacba85	-0.33736053
231	0x3e345c40	0.17613316
232	0x39c23301	0.00037040564
233	0x3ee8c8a1	0.45465568
234	0xbedddee1	-0.43334106
235	0x3ed3b956	0.41352338
236	0x3ece099f	0.40241715
237	0x3e8c5447	0.2740805
238	0xbd0bd015	-0.03413399
239	0xbce84caf	-0.028356878
240	0xbdeeac70	-0.116539836
241	0x3ec9f81f	0.39447114
242	0xbf6c91c5	-0.92409927
243	0xbc841487	-0.01612307
244	0x3ed5537f	0.41665265
245	0xbdc812cc	-0.0976921
246	0xbea7cb23	-0.3277217
247	0x3e094595	0.1340545
248	0xbf3c7980	-0.73622894
249	0xbe611574	-0.2198084
250	0xbf715921	-0.94276625
251	0xbec85677	-0.39128467
252	0xbe041da0	-0.12901926
253	0x3e2d7d9a	0.16942444
254	0x3fd39e0e	1.653261
255	0xbe0a9249	-0.13532366

sequential_2/dense_7/MatMul f4 [10, 20]
0	0x3d18042b	0.03711335
1	0xbd53e018	-0.051727384
2	0x3ed02ed6	0.40660733
3	0x3efbb323	0.49160108
4	0x3f4005b4	0.750087
5	0x3eb927d6	0.36163205
6	0x3f7ab9bf	0.97939676
7	0x3f5ca311	0.8618632
8	0xbcff6eb1	-0.031180711
9	0x3e841f7e	0.25805277
10	0x3f439e36	0.76413286
11	0x3fee16af	1.8600672
12	0x3ec079e2	0.3759299
13	0x3f740bee	0.95330703
14	0x3f409e50	0.75241566
15	0x3edd8862	0.43268114
16	0x3fa587bc	1.2932048
17	0xbcc7764a	-0.024348397
18	0x3f6732b3	0.90311736
19	0x3e00a1e5	0.12561758
20	0x3f9f95dc	1.2467608
21	0x3e9067d7	0.28204224
22	0x3dbd65bd	0.09247921
23	0x3f13fdfb	0.5780942
24	0x3f7b1558	0.9807944
25	0x3e51e511	0.20497538
26	0x3df81715	0.121137775
27	0x3fbfa62d	1.4972588
28	0x3e4086f5	0.18801482
29	0x3e2ee8de	0.1708102
30	0x3f427c6a	0.7597109
31	0x3e9cab6c	0.30599535
32	0x3e39f355	0.1815923
33	0xbefb2532	-0.49051815
34	0x3e17c9de	0.148231
35	0x3ef4807b	0.47754273
36	0x3e7ddec3	0.24792008
37	0x3f1f6394	0.6226132
38	0x3f94c94f	1.1623935
39	0x3fac215b	1.3447679
40	0x3e841d12	0.2580343
41	0xc01e0bdb	-2.4694736
42	0xbf82d37c	-1.022079
43	0x3ebe5d63	0.37180623
44	0x3d6b8891	0.057503287
45	0x3f6957d4	0.9114964
46	0xbec3d881	-0.38251117
47	0x3c4f387d	0.012647745
48	0x3f5226d5	0.820905
49	0x3f38931d	0.7209948
50	0xbeba8d53	-0.36435947
51	0xbeffb55b	-0.4994305
52	0x3e968f66	0.2940628
53	0x3f80c3ba	1.0059731
54	0xbf4feb87	-0.8121876
55	0x3e4706b9	0.19436158
56	0x3faacf99	1.3344604
57	0xbf876e99	-1.0580627
58	0xbde7b54a	-0.11313875
59	0x3f7cbdf0	0.9872732
60	0xbf94d9cf	-1.162897
61	0x3dd2b7f8	0.102889955
62	0x3f31f9ea	0.69521964
63	0xbf859b18	-1.0437956
64	0x3eaf75f8	0.3426969
65	0xbca68ba8	-0.020330265
66	0x3edafed4	0.42772543
67	0x3d9cde9b	0.07659646
68	0xbe241001	-0.1602173
69	0xbf98d282	-1.1939242
70	0xbf58f9af	-0.84755987
71	0x3eda6027	0.42651483
72	0xbf5df9ba	-0.8670918
73	0xbe1da2b9	-0.15394105
74	0x3f1ed44a	0.6204268
75	0xbe7d3192	-0.24725941
76	0xbeb39cbf	-0.35080525
77	0x3eb17632	0.34660488
78	0xbf2838fd	-0.6571196
79	0x3f55c778	0.8350749
80	0xbcbf2e1f	-0.023337422
81	0x3fab784d	1.3396088
82	0x3e48d755	0.19613393
83	0xbd44c40b	-0.048038524
84	0x3e8569c3	0.26057252
85	0x3f23a594	0.6392453
86	0x3fbdcb30	1.4827633
87	0x3e0ec4f8	0.13942325
88	0x3e4bd2ba	0.19904605
89	0x3ec93288	0.39296365
90	0xbeae2b52	-0.34017426
91	0x3f2658c9	0.64979225
92	0xbe4c28fc	-0.1993751
93	0x3e710942	0.23538688
94	0x3fa082c3	1.2539905
95	0x3ddb2fd6	0.10702483
96	0x3fa56979	1.2922813
97	0x3e3cac33	0.18425064
98	0xbf61658c	-0.88045573
99	0x3f05f5b2	0.52328026
100	0x3cc5479c	0.024081998
101	0xbf42b6d1	-0.76060206
102	0xbea2452b	-0.31693396
103	0x3f93eccb	1.1556638
104	0xbf02ac64	-0.510443
105	0x3e5f29cb	0.21793287
106	0xbd323f52	-0.04351742
107	0x3f85764f	1.042673
108	0x3ee7b377	0.45254108
109	0x3ef7dc5f	0.48410317
110	0xbf870336	-1.0547855
111	0xbeecce6c	-0.46251237
112	0x3f803e0f	1.0018939
113	0x3f1f20c5	0.6215938
114	0x3e21a207	0.15784465
115	0x3fb33e35	1.4003359
116	0xbec4abe2	-0.38412386
117	0x3bd8f075	0.0066204616
118	0xbf9d4e37	-1.2289494
119	0x3e016e6c	0.12639779
120	0x3d0e58d9	0.0347527
121	0x3f4ba69a	0.7955109
122	0x3f22c4db	0.6358163
123	0x3ef35249	0.47523716
124	0x3e31134d	0.17292519
125	0x3eb6433f	0.3559818
126	0xbe5eb41c	-0.21748394
127	0x3ef7bed6	0.48387784
128	0x3f2ae635	0.6675752
129	0x3edf9d16	0.43674535
130	0xbe2c6607	-0.16835795
131	0xbf8283c4	-1.0196462
132	0x3faabad1	1.3338262
133	0xbf3fea26	-0.7496666
134	0x3e932641	0.28740123
135	0x3e7cb69c	0.24679035
136	0xbf4925de	-0.78573406
137	0x3f382aa1	0.71940047
138	0xbf0573e7	-0.5212998
139	0xbda72369	-0.08161051
140	0x3c950e84	0.018195398
141	0xbf2b4c3e	-0.6691321
142	0x3e420a7e	0.18949315
143	0x3f009170	0.5022192
144	0x3f2dec41	0.6793862
145	0xbeab899d	-0.33503428
146	0x3e8de62e	0.27714676
147	0x3dba1539	0.09086079
148	0x3eff81e9	0.499038
149	0xbd3af23a	-0.04564116
150	0x3f4323fe	0.76226795
151	0x3deb984a	0.11503656
152	0x3f9cd377	1.2252034
153	0x3faa28d6	1.3293712
154	0x3def3730	0.11680448
155	0x3e5afcbc	0.21385473
156	0x3e8531d4	0.26014578
157	0x3f1cd75b	0.61266106
158	0x3f702001	0.93798834
159	0x3ee3250c	0.44364202
160	0x3f61bb36	0.88176286
161	0xbed6d19f	-0.41956803
162	0x3e2dba03	0.16965489
163	0xbf01bd8c	-0.5067985
164	0x3f27d4a9	0.6555887
165	0xbf2e3b73	-0.6805946
166	0x3d9b4532	0.07581557
167	0xbeaee804	-0.3416139
168	0xbedd40d9	-0.43213537
169	0xbf8afb04	-1.0857854
170	0x3ccc11ff	0.024910925
171	0xbf7cead2	-0.9879581
172	0xbf2a6b84	-0.66570306
173	0x3f1f8467	0.62311405
174	0xbdb75d09	-0.08953292
175	0xbe92f062	-0.28699023
176	0xbee06896	-0.43829793
177	0x3f93c13b	1.1543344
178	0xbe296f02	-0.16546252
179	0x3f7fd32a	0.99931586
180	0x3ebf1351	0.37319425
181	0x3eda2ec9	0.4261382
182	0x3f11edc3	0.5700342
183	0xbf37d0fb	-0.71803254
184	0xbf83e846	-1.0305259
185	0x3f5ad933	0.8548767
186	0x3c3fc114	0.011703748
187	0xbcd1ae7f	-0.025595902
188	0x3f59ab27	0.8502678
189	0x3f502a06	0.8131412
190	0x3f74fa09	0.95694023
191	0x3e0e6a9d	0.13907857
192	0x3e9698b5	0.2941338
193	0xbf1f7e3a	-0.6230198
194	0xbdc8ca42	-0.098042026
195	0xbe3356e4	-0.17513615
196	0x3f8fcc6d	1.1234261
197	0x3e6213dc	0.22077888
198	0x3f6f1837	0.93396324
199	0xbebf3ade	-0.373496

sequential_2/dense_8/MatMul f4 [9, 10]
0	0x3d8a2a19	0.06746311
1	0x3ee29875	0.4425694
2	0x3cf963da	0.03044312
3	0x3ed57d75	0.4169728
4	0x3f25acaa	0.6471659
5	0x3e7a90dd	0.24469323
6	0x3f45ef99	0.7731872
7	0xbebb6104	-0.36597455
8	0x3e9f30cf	0.31091926
9	0xbec63f82	-0.38720328
10	0x3f4428f3	0.76624984
11	0x3cb33d57	0.021879835
12	0xbe5076f7	-0.20357881
13	0xbd8fc8fd	-0.07020757
14	0x3f09dd62	0.5385343
15	0x3e3fe08f	0.18738006
16	0xbec07512	-0.37589318
17	0x3f073870	0.5282049
18	0x3e86ed45	0.26352897
19	0x3e8aebc1	0.2713299
20	0xbfc9eab4	-1.5774751
21	0xbfcfbef5	-1.623015
22	0x3f3cae49	0.7370344
23	0xbfedf282	-1.8589633
24	0xbf92446f	-1.1427134
25	0x3f7d1dd2	0.9887363
26	0x3e558998	0.20853269
27	0x3ed9575f	0.4244947
28	0xbfab319f	-1.3374518
29	0xbf44f564	-0.76936936
30	0xbfa5f42a	-1.2965138
31	0x3e42d563	0.19026713
32	0xbe426da6	-0.1898714
33	0x3f801a14	1.0007958
34	0xbf15155f	-0.58235735
35	0xbfd7d211	-1.6860982
36	0xbf573df5	-0.84078914
37	0xbd3b92ed	-0.045794416
38	0x3f9daed5	1.231898
39	0xbf01bf3f	-0.50682443
40	0xbf6dfd24	-0.92964387
41	0xbf109553	-0.5647785
42	0xbf6180ce	-0.88087165
43	0xbe34cf52	-0.17657211
44	0xbf99d3a5	-1.2017714
45	0xbe8f47b8	-0.27984405
46	0x3f24366f	0.6414556
47	0x3f28cab0	0.65934277
48	0xbeaa922c	-0.33314645
49	0x3f35b7d3	0.7098362
50	0x3e5d6250	0.21619534
51	0x3e93aeb5	0.28844228
52	0x3fa1fe77	1.2655782
53	0x3c9762a9	0.018479662
54	0xbe60c4f7	-0.21950136
55	0xbd4ef367	-0.050525095
56	0xbf72038d	-0.9453667
57	0xbd68ec80	-0.05686617
58	0xbe4e9420	-0.20173693
59	0x3d928c3c	0.07155654
60	0xbf928cc2	-1.1449206
61	0xbe58cae4	-0.21171147
62	0xbf34cf1d	-0.7062853
63	0xbfcc0486	-1.593888
64	0xbf1c1012	-0.6096202
65	0xbfaac861	-1.3342401
66	0x3f375ae2	0.7162305
67	0xbf75137a	-0.95732844
68	0xbfb52d68	-1.4154482
69	0x3fb33726	1.4001205
70	0x3fa578db	1.2927507
71	0x3d99e8ab	0.07515081
72	0xbf354556	-0.70808923
73	0x3ecf6711	0.4050832
74	0xbf0dc278	-0.5537486
75	0x3e9d869e	0.30766767
76	0xbe4097c7	-0.18807898
77	0x3f1bde2f	0.608859
78	0xbfa2b742	-1.2712176
79	0xbf0d8625	-0.55282813
80	0x3eca0c8f	0.39462706
81	0xc03f85c3	-2.9925392
82	0xbf427a01	-0.75967413
83	0x3f65338a	0.8953177
84	0x3f8986ce	1.0744264
85	0xbfcdbf4e	-1.6074007
86	0xbf33edab	-0.7028453
87	0xbf9e17b9	-1.235099
88	0xc02138f2	-2.5191007
89	0x3f0b8c01	0.54510504
